paper_model_cifake.pth (torch, 568708 bytes, 7 tensors)

conv1.weight f4 [32, 3, 3, 3]
000000 3c f1 64 3d c8 2d c3 3d f6 7e 3f 3d 43 8e bd 3d
       0.05589412 0.095302165 0.04675194 0.0925565
000010 0a b4 db bd 5a df 05 3d fa 77 db bc 1c 14 0f be
       -0.10727699 0.032683708 -0.026790608 -0.13972515
000020 71 dd 5e 3e cc 75 2a bd e5 19 66 3e ef 91 11 3c
       0.2176416 -0.041616246 0.22470815 0.008884891
000030 36 bd 14 bd b7 92 7b be 01 5d 02 bd 72 c5 6d 3d
       -0.036313258 -0.24567686 -0.031826977 0.058049627
000040 0e 9e 9d 3d 92 85 0a bd 53 ee 2f be 76 21 46 3e
       0.07696162 -0.03381879 -0.17180757 0.19348702
000050 f7 94 44 be 77 19 00 3e cd 21 5f be 56 b2 ce 3d
       -0.1919745 0.12509714 -0.21790238 0.10092609
000060 1c 4a 55 3e 5b c6 33 be 0b b5 15 3e 96 ae 14 be
       0.20829052 -0.17556135 0.14619844 -0.14519724
000070 30 c0 09 3d 0d 62 bb bd 03 7b 67 3e cf e8 ca 3d
       0.03363055 -0.09149561 0.22605519 0.09907686
000080 ad 65 a1 3d cf 00 13 be c4 68 53 be f2 46 c3 3d
       0.07880721 -0.14355777 -0.20645434 0.09535016
000090 48 42 21 be d0 ae 47 bc 39 9a a3 bc 83 81 4e 3e
       -0.1574794 -0.012187675 -0.019971 0.20166592
0000a0 f4 67 2c bd c5 42 ce 3d e5 e7 71 be 9d 81 c4 be
       -0.042091325 0.10071329 -0.23623617 -0.38380137
0000b0 0b e7 d3 3b 0a 7a f2 bd 12 19 40 3c 66 7b cd bc
       0.0064667515 -0.11839683 0.011724727 -0.025083255
0000c0 d0 9c 92 3d e1 0e 63 3e e1 39 d7 3b ad eb 47 be
       0.07158816 0.22173645 0.006568179 -0.19523497
0000d0 45 4c 9f be 54 d4 f0 bc 7e c8 06 3d 99 c9 e2 bd
       -0.31112877 -0.029398121 0.032906048 -0.11073608
0000e0 f5 50 2e 3e 27 05 18 3e 8d 06 c2 bc e7 39 11 3e
       0.1702307 0.14845715 -0.023684764 0.14182244
0000f0 58 d3 17 3e 65 df 9c bd 87 88 d1 3d 9d 77 39 bd
       0.14826715 -0.076597966 0.10231119 -0.045280088
000100 d3 88 93 3d 68 12 9b bd 0d 58 be bd 8a d7 5b 3e
       0.072038315 -0.0757187 -0.09294138 0.2146894
000110 11 f4 6e bd 85 5e 45 3d 83 69 0c 3e 89 8b e4 3d
       -0.05833823 0.048185844 0.13712125 0.11159427
000120 d1 fc 4c be 48 04 e1 bd b7 50 8f be a0 bc 13 be
       -0.20018317 -0.10987145 -0.27991268 -0.14427423
000130 a1 47 4c be 79 8f f3 bc 2a e5 86 be ae 18 5c be
       -0.199492 -0.029731499 -0.26346713 -0.2149379
000140 dd 4b 80 be 48 f2 7c bd b1 15 3b be d0 f3 c8 bd
       -0.2505788 -0.061754495 -0.18269993 -0.098121285
000150 a7 b3 3b be b9 91 19 3e ad aa b3 3d 45 a2 82 3d
       -0.1833025 0.14996995 0.08772788 0.06378607
000160 f1 b1 39 be 31 56 f1 bd 67 b8 22 3e e1 5c 06 3e
       -0.18134286 -0.11784018 0.15890656 0.13121368
000170 fd 5a cc bd 55 ba 34 3e 73 2d 79 3e 78 db 52 3d
       -0.09978292 0.17649205 0.24333744 0.051478833
000180 d6 c5 49 3d 2c 9d f4 3d f3 65 25 be 21 d8 35 be
       0.049260937 0.11944041 -0.16152172 -0.17758228
000190 6d 66 9e 3c 06 47 71 3b af dd 6a be ca 46 b6 bd
       0.01933595 0.0036816015 -0.22936128 -0.08900221
0001a0 b8 3d 5a 3e 69 f5 17 3d 60 c1 26 be 63 c0 97 bd
       0.21312606 0.037099276 -0.16284704 -0.07409742
0001b0 1e f6 31 bd d6 0d 93 bb 3d 18 93 bd 65 75 80 be
       -0.043447606 -0.0044877334 -0.071823575 -0.25089565
0001c0 ba e1 4a be 10 e9 97 3e 5d fc 32 bc cd 53 9e bb
       -0.1981267 0.2967 -0.010924426 -0.004831767
0001d0 8c 2e 86 3e 23 7c 2e be ca e7 27 3b 40 ce 1e bc
       0.26207387 -0.17039542 0.0025620335 -0.0096927285
0001e0 e4 f7 78 be 68 7f 9a be ef 7f d1 3d 91 6d 85 bd
       -0.24313313 -0.30175328 0.102294795 -0.06515039
0001f0 a7 9d 05 be c4 08 40 bd d9 d8 e7 3d 3d 0a 8e be
       -0.13048421 -0.04688336 0.11320657 -0.27742186
000200 0d 0a 55 bd b3 3a a2 3d f1 be 26 3d d4 54 86 3d
       -0.05201154 0.07921352 0.04070944 0.065591484
000210 b9 56 04 be 93 60 0c be b2 8e 49 3e 37 ee 44 3d
       -0.12923707 -0.13708715 0.1968334 0.048078742
000220 73 f1 ea 3d c4 9a 0a be e4 51 83 be 17 c4 10 bd
       0.11471834 -0.13535601 -0.25648415 -0.035343256
000230 56 37 43 3e 7f d3 3a 3e fb 96 b3 3d b8 d1 26 be
       0.19064078 0.18244742 0.087690316 -0.16290939
000240 7c ad fb 3d 92 f6 82 3e 14 17 26 be 9b 0d 74 be
       0.12288949 0.25578743 -0.16219741 -0.23833315
000250 c5 40 2d be 01 22 28 bc dc c7 cb 3d 69 ea 1d 3e
       -0.16919239 -0.010262013 0.099502295 0.15421452
000260 79 a6 a7 bd 27 f1 75 3d 41 2b f3 3b 05 71 c5 bd
       -0.08186049 0.060044434 0.0074209278 -0.096406974
000270 e5 04 5c be 7f 4e 15 bd 3d 54 8c 3e 20 ae c2 3d
       -0.21486242 -0.036451813 0.2740802 0.09505868
000280 66 59 88 bc 42 14 98 bd d8 99 42 bc 0b de 83 3d
       -0.016644191 -0.07425739 -0.0118774995 0.06438836
000290 e8 b7 6d 3d 3f 2f af 3d cb 87 2e 3b 6b 51 7a be
       0.058036715 0.08553933 0.0026631232 -0.24445121
0002a0 2a 3e 5b be 4c 21 22 3e 3f 98 79 bc 9a 74 79 bd
       -0.21410432 0.15833014 -0.015234052 -0.060902216
0002b0 95 30 53 be bb 8e a5 3d 28 70 be bd 14 0b 57 bd
       -0.20624001 0.08083864 -0.09298736 -0.0525008
0002c0 f3 c6 8d bd cb d4 12 be a1 83 60 be bc 79 30 be
       -0.06922712 -0.14338987 -0.21925212 -0.17233938
0002d0 da c1 1c 3d 12 e5 c6 bd 57 49 56 bd 14 c9 3f 3d
       0.03827081 -0.097116604 -0.052316036 0.046822622
0002e0 18 26 ba 3d 80 2e 1b 3e bc 8b 38 3e d3 14 7f 3e
       0.09089297 0.15154457 0.18022054 0.24910288
0002f0 a4 ec f5 3d 11 6d e3 3c 4b 6a dc bd 4d 00 4b 3d
       0.12008026 0.027761968 -0.10762461 0.049560834
000300 d3 68 ce be 53 91 b8 be ef c9 05 be 23 7e 81 be
       -0.4031435 -0.36048374 -0.13065313 -0.25291547
000310 d6 e8 38 be 07 af 83 3d 4e d3 df 3c 88 72 11 3e
       -0.1805757 0.06429868 0.027322438 0.14203846
000320 0f 88 f3 3d 55 0f d8 be ca 41 ff be 52 c5 a0 be
       0.118911855 -0.42199197 -0.4985488 -0.31400543
000330 b3 92 06 be 2a 2f df be a5 80 1e be 9a 5b 94 3d
       -0.13141899 -0.4359067 -0.15478761 0.07244034
000340 7b 26 8d 3e d0 3e f5 3d b0 ef 9d be 20 9f 5c be
       0.2756842 0.11974871 -0.3084693 -0.21545076
000350 48 3c 15 be b1 a3 86 bd 99 0f 03 be 09 b8 7e bd
       -0.14573777 -0.065741904 -0.12798919 -0.06218723
000360 3b 8a ae bd d0 6c 1e 3e 6b 45 fd 3d 9a 30 4b be
       -0.08522459 0.15471196 0.12366756 -0.19842759
000370 da fc 1c be 69 7e 1e 3e cd ae 1f be a6 84 5f bd
       -0.1533083 0.15477909 -0.15594025 -0.054569863
000380 fa a2 29 be e9 13 4e 3e 83 ea 87 3e d9 08 32 3e
       -0.16566077 0.20124783 0.26546106 0.17386188
000390 a6 e8 32 3e e4 bc 0d be e9 43 9b 3d f0 7a 3d bd
       0.17471561 -0.13841587 0.07581312 -0.04625982
0003a0 b8 ea 75 bd 6d 0f 57 bd 2e 1b 43 bd 78 32 3b bd
       -0.0600383 -0.052504946 -0.047633342 -0.045702428
0003b0 ea 66 a1 3d 8a 16 21 be 53 8f 2b be d8 c7 46 3e
       0.078809574 -0.15731254 -0.16753893 0.19412172
0003c0 5c 14 33 be ca 0b 1e be 05 85 4c 3c c8 af 1b 3e
       -0.17488235 -0.15434185 0.012482886 0.15203774
0003d0 04 3b 6c 3e 53 ad 0d be 23 e8 0d be 95 99 0c be
       0.23069388 -0.13835649 -0.13858084 -0.13730462
0003e0 6a 4c b2 3d 3c e3 5c 3d 1c 09 ce bd bc df f8 bd
       0.08705981 0.053927645 -0.10060331 -0.12152049
0003f0 fb 38 63 3e 79 77 e6 3d d3 de 1a 3e e0 d4 e8 bd
       0.22189705 0.11253256 0.15124063 -0.11368728

conv1.bias f4 [32]
000000 50 67 3a be fa 19 43 3d b6 ca 8b bc 49 b3 25 bd
       -0.18203473 0.047632195 -0.017064434 -0.040454183
000010 20 4f 85 bc 3b 0c 26 3b f6 6e 9e 3d c2 21 8c 3e
       -0.016273081 0.002533688 0.07736008 0.27369505
000020 68 08 cd bd 85 0d 70 be d9 ec c6 3d 48 5e 12 bd
       -0.10011369 -0.23442657 0.09713144 -0.035734445
000030 b4 0f 3c 3d b4 b7 ce bc de 64 a9 3d f5 b9 b2 3d
       0.045913413 -0.02523408 0.08271192 0.08726875
000040 20 74 41 3e 45 51 c8 bd f5 58 aa bd 76 91 1d 3c
       0.18891954 -0.09781126 -0.083177485 0.0096172
000050 dc 50 da bd e2 ce c6 3d f6 2f 04 be e8 5b 7b 3c
       -0.10659954 0.097074285 -0.1290892 0.015341736
000060 bc 38 f6 3c 65 bd 20 be 6c 58 af bd 3a 19 56 be
       0.03005635 -0.15697248 -0.08561787 -0.2090806
000070 de 39 49 bc 30 18 ad b9 32 ec e7 bb 85 8c 41 3e
       -0.012281863 -0.00033015152 -0.007077717 0.1890126

conv2.weight f4 [32, 32, 3, 3]
000000 b8 19 a6 3b cf 46 58 3d f7 6f 6d 3d df 6f 28 bc
       0.005068984 0.052801903 0.057968106 -0.010280578
000010 75 31 61 bd 2b c8 49 3d 36 af 45 bc 08 38 32 3d
       -0.054978807 0.04926316 -0.012065699 0.043510467
000020 62 7e d3 3c da 86 3b bd a7 66 10 bd f0 50 3a bd
       0.0258171 -0.0457829 -0.035254147 -0.045487344
000030 e3 b0 54 bd 2e 2a bf bc ac bd b8 3b a1 2e d3 39
       -0.051926505 -0.023335543 0.005637845 0.00040279797
000040 f8 1e 17 bd 36 a5 67 bd 5a e8 26 bd 50 b8 eb bb
       -0.03689477 -0.05655404 -0.04074893 -0.0071936026
000050 cf 6b 25 3d dc 31 01 bc fe 54 64 3c de e5 f5 3c
       0.040386017 -0.007885423 0.013936279 0.030016836
000060 b6 25 b5 bc 4e a8 e6 3c 69 96 68 bc df ba 2f 3d
       -0.022112709 0.028156426 -0.014196017 0.042902824
000070 28 91 f4 3b 3e a3 03 bd a2 33 a3 3c 6d f9 b6 bc
       0.007463593 -0.0321381 0.019922081 -0.022335732
000080 c3 5e 08 bd 43 19 68 bd 24 13 b0 bc 40 27 cd bb
       -0.033293497 -0.056664716 -0.021493502 -0.0062607825
000090 8d db 66 3d c5 1f 62 3d 28 34 3f bd dc 9b e0 bc
       0.056361724 0.05520608 -0.0466806 -0.02741807
0000a0 0f a4 36 3d e4 22 27 bc c7 25 00 bd b4 66 97 bc
       0.044590052 -0.01020119 -0.031286027 -0.01848159
0000b0 19 1b 49 bd 2a 4d f0 3c 0c 29 8e bc 06 c2 ee 3c
       -0.049098108 0.02933367 -0.017353557 0.029145252
0000c0 dd 56 93 bd 61 40 b3 bb 57 f9 45 bd 2e a1 9b bd
       -0.07194302 -0.005470321 -0.048333492 -0.07599102
0000d0 01 6f d1 bb e3 08 cf bc b6 ac 3e 3d ce 91 60 bd
       -0.0063914065 -0.025272792 0.04655143 -0.05482655
0000e0 1a 01 00 bd 8d 85 8a 3c 50 e2 e3 bb bc 1d 21 bd
       -0.03125105 0.016909385 -0.006954469 -0.039334998
0000f0 d6 f6 28 bc 53 f3 7c 3b cc 2c 4b 3d a4 25 48 3c
       -0.0103127565 0.003859718 0.04960327 0.0122160055
000100 c1 71 30 3d 9b d8 17 bd 8c 2c 09 3c 01 d6 67 bd
       0.043077234 -0.037071805 0.008372437 -0.056600574
000110 40 83 ed 3c 1f 07 e2 3c 72 35 88 bc bd 10 80 bd
       0.028993249 0.027591286 -0.016627047 -0.062531926
000120 c4 05 0a 3c 9f 06 43 bd 1e 3a 3c bd bf 86 54 3d
       0.008424226 -0.047613736 -0.045953862 0.051886316
000130 6c dd 31 3c ee d3 07 3c 5d d7 d0 3c ea fd 87 bd
       0.010856014 0.008290274 0.025493318 -0.06640227
000140 6e e2 e6 3c 2c ad 3e bc 91 d0 8a bc 1d f3 21 3d
       0.028184142 -0.011637967 -0.016945155 0.03953849
000150 93 ef 9c 3c 97 f5 06 bd 24 39 05 bd e8 0a 00 bd
       0.019157207 -0.032949056 -0.032525197 -0.0312604
000160 cd 8d 5f bb d5 47 11 3d 49 66 11 bd c6 a8 58 bd
       -0.003411162 0.035468895 -0.035497937 -0.05289533
000170 8e b7 f1 3c 95 a0 4e bd 97 bf c5 bc 6b 90 05 3d
       0.029506471 -0.05044611 -0.024139209 0.03260843
000180 ab 16 43 3a 7b fa 8f 3b 4c 62 32 3c 86 df 17 bd
       0.00074420375 0.0043938733 0.010887694 -0.037078403
000190 c1 d3 0c 3d 90 fc 10 bc ca cf 43 bb 94 42 41 3c
       0.03438163 -0.008849278 -0.002987849 0.011795659
0001a0 ab 0f 65 3d 4c 58 51 3c 57 56 11 bd 0e 56 0d bd
       0.055923145 0.012777399 -0.03548273 -0.034505896
0001b0 ef f1 0d bc 65 60 aa bc 00 28 eb 39 c1 d9 72 bd
       -0.0086636385 -0.020797918 0.00044852495 -0.059289698
0001c0 a6 9e df 3b 3c 9c 17 bd 63 f0 9f bd b1 35 90 bc
       0.0068243323 -0.03701423 -0.07809522 -0.017603727
0001d0 58 4c 49 bc e3 32 15 3d 29 84 36 3d 60 57 d6 bb
       -0.012286268 0.036425482 0.04455963 -0.0065411776
0001e0 ec ad 1c bc c9 63 60 bd 15 0c 9f 3c 8a fc 5b 3c
       -0.009562951 -0.054782663 0.01941494 0.013426909
0001f0 4a c3 84 bc 57 b8 10 3d 4a ab 00 3c 14 bb b3 bc
       -0.016206402 0.03533205 0.0078533385 -0.021939792
000200 95 d4 66 bd d0 a9 b0 bd 5c c0 52 bd a5 2d f7 bc
       -0.056355078 -0.08626139 -0.05145298 -0.030173132
000210 29 a2 80 bd 58 df 3f bd 09 9c 74 bd 8b 26 35 bd
       -0.062809296 -0.046843857 -0.05971912 -0.04422621
000220 52 3c 92 bd 81 46 4b 3d 47 4e c1 3c ad ab 13 bd
       -0.071404114 0.049627785 0.023596896 -0.036052395
000230 d5 af 98 3c cf 68 22 3c f0 65 49 bd 87 78 e8 bb
       0.01863853 0.009912684 -0.04916948 -0.007094446
000240 78 8e af bb 4b 36 85 bc 50 95 e7 bb 84 1e 9d bc
       -0.00535756 -0.01626124 -0.00706736 -0.01917959
000250 14 7a 50 bc 62 47 bf bb b0 1f 34 bd 61 69 27 3c
       -0.012724418 -0.005837367 -0.043975532 0.010217995
000260 aa cc bd 3c 30 f4 e5 bc 20 44 e4 bb a0 5d e8 3a
       0.02316888 -0.02807054 -0.006966129 0.0017728098
000270 00 70 86 bb 85 fd 16 3d 20 78 7b bc 10 18 e6 3c
       -0.004102707 0.03686287 -0.015348464 0.028087646
000280 87 5d c7 3c 38 23 09 bd 6c 48 3e bd cb 3a d2 bc
       0.02433659 -0.033480853 -0.046455786 -0.0256628
000290 59 a1 2b 3d 19 a2 8e bd e6 18 1c bd f1 30 7f ba
       0.04190192 -0.069645114 -0.038109683 -0.0009734771
0002a0 c3 87 20 bc 62 87 4f bd b0 b2 3f 3d 3b fc 75 bd
       -0.009797993 -0.05066622 0.04680127 -0.060055
0002b0 ca f5 fa 3b dc 4a 06 bc 7e 11 a4 bd 7c 83 ec 3c
       0.007658695 -0.008196559 -0.08011149 0.02887129
0002c0 52 89 31 3d b4 2a fc bc a6 39 e9 3c 43 7d 3c bd
       0.04334385 -0.030782081 0.028469872 -0.046017896
0002d0 8a 52 1c bd 4c ea 96 bc b0 3c 30 3b 68 bf dc 3b
       -0.038164653 -0.018422268 0.0026891641 0.0067366846
0002e0 02 7d 7b bd eb 2f 21 bd 29 43 1b bd ff 83 d0 3c
       -0.061398514 -0.03935234 -0.037905846 0.025453566
0002f0 a8 51 26 bd f5 c3 5b bd 5d 33 d8 3c 42 b5 3d bd
       -0.040605217 -0.053653676 0.02639168 -0.04631544
000300 03 e5 8a 3b 5f e3 c9 bc 31 57 17 3c 47 73 1b bc
       0.004238726 -0.024644552 0.009237097 -0.0094879335
000310 03 ba 84 bd f4 9e 4f 3d 02 96 e6 3c bc 72 b7 bc
       -0.064807914 0.0506887 0.028147701 -0.022393577
000320 8d b0 e4 bc ec d1 4f bc 46 66 09 bd a7 a1 21 3d
       -0.027916217 -0.012684327 -0.0335448 0.039460804
000330 43 6b 47 3d 59 a4 30 bd c6 e7 d1 3c 95 d9 c5 bc
       0.048686277 -0.043125484 0.025623213 -0.024151603
000340 83 c0 f3 bc 2e 5a 80 bc 59 28 ce bc 05 30 08 bd
       -0.029754883 -0.015668001 -0.025165724 -0.03324892
000350 9e 4b bc 3c fb 27 29 bd 4c 5e 33 bc 88 52 41 bd
       0.022985276 -0.041297894 -0.010947775 -0.04719785
000360 ab 02 66 3d 04 fa 3e bc d0 84 5f bc 34 9c 28 bd
       0.056154888 -0.011656288 -0.013642505 -0.041164592
000370 0e 68 06 bd f0 41 42 bc e9 11 48 bd ab f1 42 bd
       -0.032814078 -0.011856541 -0.048845205 -0.047593754
000380 17 73 18 3c 2b 84 1e bd da 2f 23 bd ca 85 92 3c
       0.009304783 -0.038700264 -0.039840557 0.017886061
000390 87 b8 d4 bc a1 f2 80 bb fd 5d 81 bd cc a4 91 bd
       -0.025966896 -0.0039351736 -0.06316755 -0.07111511
0003a0 39 e2 26 bd c0 a1 04 3b 38 ec 47 bd 9a 63 d6 3c
       -0.040743086 0.0020238012 -0.04880926 0.02617054
0003b0 06 b1 24 bd d6 05 29 bd 6c bb 84 bd 86 52 93 bc
       -0.040207885 -0.04126533 -0.064810604 -0.017983686
0003c0 61 cf 2a 3c 68 46 d1 bc 38 3f df 3b 64 16 03 3c
       0.01042542 -0.025546268 0.006812956 0.008000944
0003d0 e5 af a7 bd b5 34 15 3d a6 2c b7 3c 93 fa 5a 3c
       -0.08187846 0.03642722 0.022360157 0.013365406
0003e0 36 62 44 bd 20 8a 4b 3b ca 83 05 bd 10 25 84 bb
       -0.047945224 0.003105767 -0.032596387 -0.0040327385
0003f0 00 2a 02 bc 42 5c 8f bd 56 08 98 3c 38 2d 41 bc
       -0.007944584 -0.07000019 0.018558662 -0.011790566

conv2.bias f4 [32]
000000 85 fa 5f bd c5 10 97 bd 7b 32 18 be 3b 61 58 bd
       -0.054682273 -0.073762454 -0.14863007 -0.0528271
000010 66 13 65 bd 95 1b 9a 3d af f5 3e bd df 20 b3 bd
       -0.055926703 0.07524792 -0.04662102 -0.08746504
000020 99 ae 88 bd 23 8d 95 bd 2f 1d 9d bc 8b 30 3b 3d
       -0.06673927 -0.0730231 -0.019178955 0.04570059
000030 9b d6 68 bd ee 04 69 3d a3 13 95 bc 22 b9 1d be
       -0.05684529 0.056889467 -0.01819784 -0.15402654
000040 27 83 b4 bd 9b 7a 1c bc a2 d4 61 bc 93 a2 25 3e
       -0.08814078 -0.009550716 -0.013783606 0.16175298
000050 48 11 54 bd 95 48 02 3e 8d 67 ab bd 64 d6 b0 3c
       -0.051774293 0.12723 -0.0836936 0.021586604
000060 d9 58 d9 bd 12 2e 0e 3e ab 83 bd bd 53 2f fb bc
       -0.106126495 0.13884762 -0.09253629 -0.030662214
000070 eb 6c 09 bd 49 20 56 3d bd 41 24 3c dd f5 9e 3b
       -0.033551138 0.052276883 0.010025439 0.0048510865

fc1.weight f4 [64, 2048]
000000 24 35 5a 3c bc 8e ea 3b 14 af f2 3b 5e 40 5a 3c
       0.013318334 0.0071581285 0.007406125 0.01332101
000010 d6 01 49 3c da 23 5d bc dd 01 b5 3c 50 13 47 3b
       0.012268504 -0.013497317 0.022095615 0.0030376501
000020 a7 48 88 3c b6 d0 0c 3c d5 2c 40 bc 6c 7c 9c bc
       0.016636206 0.008594682 -0.011729439 -0.019102298
000030 2b 66 8c 3c 77 d7 8b 3c d1 c0 ab bc e4 76 b0 bb
       0.017138561 0.017070515 -0.020965965 -0.0053852666
000040 88 91 b3 bc ce dd 75 3c f7 61 31 bc f4 f5 99 3b
       -0.02191998 0.015006496 -0.010826579 0.0046985094
000050 00 af f5 b9 90 1f 77 3b 08 c7 78 bb b2 76 a0 bc
       -0.00046860427 0.0037708022 -0.0037960429 -0.019587848
000060 a0 33 74 3b b5 7a 4e bc 80 2a 16 39 60 f3 69 bb
       0.0037262216 -0.012602498 0.00014320947 -0.0035698041
000070 f6 07 49 bc f5 d0 01 bc 91 14 b0 3c 50 f7 d9 3a
       -0.012269964 -0.007923354 0.021494182 0.0016629491
000080 67 a6 a6 3c d5 b2 83 3c d8 2d 65 bb d0 41 5d bb
       0.020343019 0.016076485 -0.0034969952 -0.003376115
000090 77 0b 07 bc 4c 91 9b bb e2 5f 5e bc 08 5b 90 bc
       -0.0082424795 -0.0047475453 -0.013572665 -0.017621532
0000a0 17 e0 ad bc 68 ef 95 bc e0 df b8 3a e1 2b b4 bc
       -0.021225018 -0.018302634 0.0014104806 -0.02199358
0000b0 6f 89 86 3c 92 bf 71 3c 80 34 84 39 66 fb 9d bc
       0.016422955 0.014755147 0.00025216118 -0.019284915
0000c0 bc 91 13 3c a2 87 2c 3c 1c 17 c1 bb 5a be 74 3c
       0.009006914 0.010530384 -0.0058926474 0.0149379615
0000d0 78 96 18 3b 32 ea 5b 3c 52 66 58 3c 80 88 a3 bb
       0.0023283046 0.013422536 0.013207989 -0.0049906373
0000e0 9d ca 83 3c c1 35 87 3c 19 c3 02 bc 30 15 e4 bb
       0.016087824 0.016505124 -0.007981085 -0.0069605336
0000f0 88 7c c8 3b cc 19 61 bc 1a 38 32 3c 1e 17 ef 3c
       0.006118361 -0.013739061 0.0108776335 0.029185828
000100 ec 93 1d bd 6e 74 23 bc ce 00 f9 bb 57 02 05 3c
       -0.038471147 -0.0099764895 -0.007598973 0.008118234
000110 e7 0f 01 3c 40 e0 9a 3b d0 46 c0 bc 0c 22 9d bc
       0.007877327 0.0047264397 -0.023471266 -0.019181274
000120 d6 57 ca bc 16 6d 61 bc 00 3b df 3c 8f 57 04 bd
       -0.024700087 -0.013758918 0.027249813 -0.032310065
000130 e3 27 73 3d 02 67 85 bd 77 b6 6c bd 94 ad be bc
       0.05936421 -0.06513788 -0.0577912 -0.023276128
000140 20 63 14 bd cc 3b 7f 3d 30 05 c5 3c 26 91 b0 3d
       -0.036227345 0.062312886 0.024050325 0.08621435
000150 49 65 9d 3d db 4a ed bc 04 57 32 bb c5 58 16 3d
       0.07685334 -0.028966358 -0.002721251 0.03670575
000160 e5 ec 07 bc cf e5 a1 3d a2 0f 48 3d 58 7f 89 3d
       -0.008296226 0.07905161 0.048843034 0.06713742
000170 1c de d0 3d 9e 6f 32 3d 26 4b de 3b 6e 83 d8 bc
       0.10198614 0.043563478 0.0067838607 -0.026429858
000180 54 f5 54 bd 85 83 85 3d 69 e1 03 3d 4b f5 30 3c
       -0.051991776 0.06519226 0.03219739 0.01080067
000190 bd 78 f6 3d 56 67 dc 3c ee d1 e4 3c 2d e5 39 3d
       0.12034748 0.026904743 0.027932134 0.045384575
0001a0 77 f9 a0 bd 2b f7 19 3d 92 80 fb 3c ce c4 a1 3d
       -0.07860082 0.037589233 0.030700956 0.07898866
0001b0 34 86 7b 3c 4b d0 5a 3c b8 29 18 3d 0d 02 ef 3c
       0.015351821 0.013355325 0.03714916 0.029175783
0001c0 66 75 03 be 03 65 80 3d 69 d7 11 3d f1 47 84 bb
       -0.12837753 0.062692665 0.03560582 -0.0040368964
0001d0 2c 5f 8f bc 4c ee 95 bc a1 de 4e 3d 20 1c 22 3d
       -0.017501436 -0.018302105 0.050505284 0.039577603
0001e0 28 e6 cd bd f9 a1 dd 3b 43 cd 91 3d da 8e 83 bd
       -0.100536644 0.0067636934 0.07119229 -0.06423731
0001f0 c1 06 97 bb a7 ed ac bd 15 98 0b 3d d7 48 a1 3d
       -0.0046089594 -0.08443766 0.034080584 0.07875221
000200 6a b2 9a bd 2c 8d 04 bd 96 1f 9e 3b b9 99 81 bb
       -0.07553561 -0.032361194 0.0048255427 -0.0039550927
000210 4e 0a d7 bb 88 f5 5b bc ca df 21 bd 8a fa 12 bd
       -0.0065625077 -0.013425238 -0.039520063 -0.035883464
000220 64 bc 6a 3d cd af 16 3d e5 46 2a 3d 2d 27 96 3d
       0.05730857 0.03678875 0.041571517 0.07331691
000230 dc b8 80 bd 15 5e 40 bd f8 fd d2 bc 95 37 33 bd
       -0.06285259 -0.046964724 -0.025755867 -0.04375418
000240 70 1d fc 3c f7 b0 b7 bc c8 4c 35 3c e0 e0 c1 3b
       0.030775756 -0.02242325 0.011065669 0.0059166998
000250 2d d1 77 bc 8a fc ba 3c 92 e4 7b 3b 13 a6 20 bd
       -0.015125555 0.022825498 0.00384358 -0.03922088
000260 72 d1 26 3d 12 fc 86 3d bb a6 10 3d 4f 5d 6d 3c
       0.040727086 0.06591047 0.035315257 0.0144875785
000270 f9 02 67 3c d7 66 f6 bc 7c 11 55 3c c5 69 92 bd
       0.01409983 -0.030078335 0.013004657 -0.0714908
000280 83 58 34 bd 11 30 e0 bb bd 0f 81 3c ed 16 40 3d
       -0.044029724 -0.0068416675 0.015754575 0.046896864
000290 c1 79 de bb df e2 1e 3d 0e bb c4 b9 12 23 eb bd
       -0.0067894165 0.03879058 -0.000375234 -0.114812985
0002a0 85 1b 9a 3c 13 75 b2 3d b3 de 3b 3d 17 d5 26 3d
       0.01881195 0.087137364 0.04586668 0.040730562
0002b0 99 1a 8d 3d 4c 33 f4 bb 05 2c 9a bc c0 95 ee bd
       0.06889839 -0.007452404 -0.018819818 -0.11649656
0002c0 04 97 ec 3c 72 d5 8c 3d a9 2a fa 3c f3 97 1f bc
       0.028880604 0.06876649 0.03053792 -0.009740817
0002d0 80 5a 8b 3c 41 da 8a 3c a2 1e 97 3a 46 d4 6b bd
       0.017010927 0.016949775 0.0011529515 -0.057575487
0002e0 49 f7 34 3c 20 a5 7f bc e9 2f 69 bb 33 5c 91 3b
       0.0110452855 -0.015603334 -0.0035581535 0.00443604
0002f0 95 83 38 bd 6b ff 30 3d 6a c8 49 bc b2 91 3e bd
       -0.04504736 0.043212336 -0.012315849 -0.046525665
000300 fe db 97 3d e2 0e f1 3d 02 01 a2 3d 24 76 56 3d
       0.07415007 0.11770417 0.079103485 0.05235876
000310 a2 ee 82 3c 6e 56 17 3d b2 0c 78 3d 66 a4 df 3d
       0.01598293 0.03694766 0.060558982 0.109200284
000320 8a 5b 7f 3c ed 6d c7 3b 9a 60 67 3d 91 bb 5e 3a
       0.015585789 0.006086102 0.05648861 0.00084965775
000330 c6 48 17 3d 69 f1 08 3d 23 c6 02 3d ed 73 9c 3c
       0.036934637 0.03343335 0.03192724 0.019098246
000340 98 63 8c 3d 3b 45 2d 3d 5f c8 a2 3d 46 a6 e7 3d
       0.068549335 0.04230235 0.07948374 0.11311011
000350 df 81 b6 3d d3 5e 61 3d 63 1d 3a 3d 81 50 88 3d
       0.0891149 0.055022072 0.04543818 0.0665598
000360 f1 62 55 3d 05 1c 8a 3c 41 b1 2d 3e 0a ac 0c 3e
       0.05209631 0.016859064 0.16962148 0.13737503
000370 47 d1 e8 3d 73 ad cd 3d f5 ef 87 3c 1e 56 eb 3d
       0.113680415 0.100428484 0.016593913 0.11491035
000380 8b 5b 2b 3e 76 66 ab 3d 23 44 af 3d 67 f1 c6 3d
       0.1673414 0.08369152 0.08557918 0.097140126
000390 aa e0 05 3e e9 e8 2d 3e 28 33 fe 3d 13 9b aa 3d
       0.13073984 0.1698338 0.12412101 0.08330359
0003a0 62 3e 08 3e e7 5d b6 3b c6 48 7f 3c 84 84 0c bb
       0.13305047 0.0055653933 0.015581315 -0.002144129
0003b0 3f 8d 9d bc 0d db 3d bc b0 a1 39 bd 5a 2f 28 3e
       -0.01923239 -0.01158787 -0.045320213 0.16424313
0003c0 22 71 82 3e ff 5b 00 3d 4a 78 62 3c 13 a5 78 3d
       0.25476938 0.031337734 0.013822624 0.060704302
0003d0 67 27 ec 3d a4 52 b9 3c 58 68 5e 3d e8 d0 05 3e
       0.11530953 0.022622414 0.05429873 0.13067973
0003e0 02 91 eb bc 2b fb 80 bc 7e 49 bc bc 6b 7a 06 bd
       -0.028755669 -0.015744766 -0.022984263 -0.03283159
0003f0 c4 25 85 bd 85 ea 55 bd ba 6c 2e bd 56 1c 21 bb
       -0.06501344 -0.05222561 -0.04258416 -0.002458354

fc1.bias f4 [64]
000000 1e 8f e6 3c 49 31 b3 bc d9 50 67 bb 50 24 94 bc
       0.028144415 -0.021874087 -0.0035295992 -0.018083721
000010 69 22 19 3d d6 ad 39 3d 87 db 2b 3d c0 21 2b 3c
       0.03738633 0.0453318 0.041957404 0.010445058
000020 5d f0 70 3d f8 6a db bc 78 a6 d7 bc 05 3d 0f bc
       0.05882298 -0.026784405 -0.026324496 -0.0087425755
000030 18 8b f2 bc 5b 03 2f 3d 6e 25 85 bc 7f ee c3 3c
       -0.02960734 0.04272781 -0.0162532 0.023917435
000040 b0 89 6b bc 23 a8 22 3d 38 6c 01 3d 76 ae 7c 3d
       -0.014376089 0.03971113 0.031597346 0.061689816
000050 64 c3 de bb 5b 4e 6e 3d f6 66 12 3d 79 eb a2 3c
       -0.0067981947 0.058180194 0.035742722 0.019887673
000060 0f 95 41 3c 9e 4e 8c 3c 95 80 86 3c 7d 59 6f 3b
       0.0118153235 0.017127331 0.016418735 0.0036521845
000070 81 3b 9e bc 98 61 a4 3c f1 78 62 3c 1c 5c 08 bc
       -0.019315483 0.020066068 0.01382278 -0.008322742
000080 fc dc 73 3c 52 0a 06 3c 46 24 26 3c b8 46 14 bd
       0.01488423 0.0081811715 0.010140484 -0.036200255
000090 1d 7d cc 3b 77 ec 7a 3c 9d 48 14 bc fd 09 cc 3c
       0.0062405006 0.015315167 -0.0090505155 0.024907107
0000a0 d8 ea 53 bc 1a 9f 7e bc 10 8d df 3c b6 bf 1c 3d
       -0.012934409 -0.015540862 0.027288944 0.038268767
0000b0 da a6 ee 3b 20 9c ea 3b cb 89 3b 3d 94 61 98 bb
       0.007283074 0.007159725 0.045785706 -0.004650304
0000c0 ad bf 30 3c f3 6f 80 3c 5d a5 1b 3d 76 78 80 3d
       0.010787887 0.015678382 0.0379995 0.06272976
0000d0 9e 97 2a bc 45 51 7f 3d bb 34 d6 3c 46 95 27 bc
       -0.010412125 0.062333364 0.02614819 -0.010228461
0000e0 7b 28 5a bc e7 67 99 bc 50 e0 96 bc 90 52 e7 3a
       -0.013315315 -0.018726302 -0.018417507 0.0017648507
0000f0 0f 39 9a 3b 42 8d 42 bc 2a 39 6e 3d 5f c6 7c 3c
       0.004706509 -0.011874499 0.058159985 0.015428155

fc2.weight f4 [1, 64]
000000 d3 86 13 be 1e 72 ba 3c b8 37 bb 3d 08 2c 1b bd
       -0.144069 0.022759493 0.09141487 -0.03788379
000010 7c af a6 be e4 48 25 be 78 d1 e3 bd 87 ab fe bd
       -0.3255576 -0.16141087 -0.11123937 -0.1243506
000020 ee 88 f3 3e a6 49 c9 3d e4 05 94 3d cb 1c 1f 3c
       0.47565407 0.098285004 0.07227686 0.009711455
000030 51 4b 00 bd 32 f2 ca bd c1 b7 9a 3d 99 fe 23 3e
       -0.031321827 -0.09909476 0.075545795 0.1601509
000040 22 1a 81 3d 9d d8 43 be 38 54 13 be 5f 71 27 bf
       0.063038126 -0.191256 -0.14387596 -0.65407366
000050 f8 bc a4 3d 53 86 d0 bd 31 78 32 3e 7a 0a fa bd
       0.080438554 -0.1018187 0.17428662 -0.122090295
000060 79 29 31 3e 46 e1 4b 3e 93 f9 2f be e3 9d 2d 3d
       0.17300977 0.19910154 -0.17185049 0.0423869
000070 e1 44 9d bd 3e 83 14 be f0 9a 32 bd ea 25 78 3d
       -0.07679153 -0.1450319 -0.04360479 0.060583033
000080 6e f5 1a 3d 30 76 65 bc 92 6e 50 3e 87 5a 9c bd
       0.037831716 -0.014005229 0.20354679 -0.07634454
000090 09 c5 d0 bd 3b ff 8f 3c 64 ac 7d bc 8b ef fc bd
       -0.101938315 0.017577758 -0.015482996 -0.12350377
0000a0 a8 29 f7 bc 9d 40 27 3c 0a 7d ee bd b8 92 0c be
       -0.03017123 0.010208276 -0.11644943 -0.13727844
0000b0 9f 2c e7 3d 85 af 98 3d 60 1c a0 bd 3f a0 0b 3d
       0.11287808 0.07455353 -0.07817912 0.03408837
0000c0 8b 68 64 3d a7 96 16 3d f0 96 16 3f 49 bb c3 3e
       0.055763762 0.036764767 0.5882406 0.38228825
0000d0 36 4a da 3d 1c 46 02 bf a3 b6 fc bd 18 77 c8 3d
       0.10658686 -0.5088823 -0.12339523 0.0978834
0000e0 05 d5 d4 3c 4b b4 7b 3d 23 e3 d2 bc 4a 8d 3a 3e
       0.025980482 0.061451238 -0.025743073 0.1821796
0000f0 14 1c bb bd 60 ad 77 3d ea 4d 8c 3e 18 81 b1 bb
       -0.09136215 0.060468078 0.27403194 -0.0054170005
